…
2018-08-31 18:24:09.037339: I tensorflow/core/common_runtime/gpu/gpu_device.cc:1097] Created TensorFlow device (/job:localhost/replica:0/task:0/device:GPU:0 with 23229 MB memory) -> physical GPU (device: 0, name: Tesla P40, pci bus id: 0000:3b:00.0, compute capability: 6.1)
2018-08-31 18:24:09.254139: I tensorflow/core/common_runtime/gpu/gpu_device.cc:1097] Created TensorFlow device (/job:localhost/replica:0/task:0/device:GPU:1 with 21773 MB memory) -> physical GPU (device: 1, name: Tesla P40, pci bus id: 0000:d8:00.0, compute capability: 6.1)
_________________________________________________________________
Layer (type)                 Output Shape              Param #   
=================================================================
the_input (InputLayer)       (None, 1600, 200, 1)      0         
_________________________________________________________________
conv2d_1 (Conv2D)            (None, 1600, 200, 32)     288       
_________________________________________________________________
batch_normalization_1 (Batch (None, 1600, 200, 32)     6400      
_________________________________________________________________
conv2d_2 (Conv2D)            (None, 1600, 200, 32)     9248      
_________________________________________________________________
max_pooling2d_1 (MaxPooling2 (None, 800, 100, 32)      0         
_________________________________________________________________
batch_normalization_2 (Batch (None, 800, 100, 32)      3200      
_________________________________________________________________
conv2d_3 (Conv2D)            (None, 800, 100, 64)      18496     
_________________________________________________________________
batch_normalization_3 (Batch (None, 800, 100, 64)      3200      
_________________________________________________________________
conv2d_4 (Conv2D)            (None, 800, 100, 64)      36928     
_________________________________________________________________
max_pooling2d_2 (MaxPooling2 (None, 400, 50, 64)       0         
_________________________________________________________________
batch_normalization_4 (Batch (None, 400, 50, 64)       1600      
_________________________________________________________________
conv2d_5 (Conv2D)            (None, 400, 50, 128)      73856     
_________________________________________________________________
batch_normalization_5 (Batch (None, 400, 50, 128)      1600      
_________________________________________________________________
conv2d_6 (Conv2D)            (None, 400, 50, 128)      147584    
_________________________________________________________________
batch_normalization_6 (Batch (None, 400, 50, 128)      1600      
_________________________________________________________________
max_pooling2d_3 (MaxPooling2 (None, 200, 25, 128)      0         
_________________________________________________________________
conv2d_7 (Conv2D)            (None, 200, 25, 128)      147584    
_________________________________________________________________
batch_normalization_7 (Batch (None, 200, 25, 128)      800       
_________________________________________________________________
conv2d_8 (Conv2D)            (None, 200, 25, 128)      147584    
_________________________________________________________________
batch_normalization_8 (Batch (None, 200, 25, 128)      800       
_________________________________________________________________
max_pooling2d_4 (MaxPooling2 (None, 200, 25, 128)      0         
_________________________________________________________________
conv2d_9 (Conv2D)            (None, 200, 25, 128)      147584    
_________________________________________________________________
batch_normalization_9 (Batch (None, 200, 25, 128)      800       
_________________________________________________________________
conv2d_10 (Conv2D)           (None, 200, 25, 128)      147584    
_________________________________________________________________
max_pooling2d_5 (MaxPooling2 (None, 200, 25, 128)      0         
_________________________________________________________________
reshape_1 (Reshape)          (None, 200, 3200)         0         
_________________________________________________________________
batch_normalization_10 (Batc (None, 200, 3200)         12800     
_________________________________________________________________
dense_1 (Dense)              (None, 200, 128)          409728    
_________________________________________________________________
batch_normalization_11 (Batc (None, 200, 128)          512       
_________________________________________________________________
dense_2 (Dense)              (None, 200, 1434)         184986    
_________________________________________________________________
batch_normalization_12 (Batc (None, 200, 1434)         5736      
_________________________________________________________________
Activation0 (Activation)     (None, 200, 1434)         0         
=================================================================
Total params: 1,510,498
Trainable params: 1,490,974
Non-trainable params: 19,524
_________________________________________________________________
__________________________________________________________________________________________________
Layer (type)                    Output Shape         Param #     Connected to                     
==================================================================================================
the_input (InputLayer)          (None, 1600, 200, 1) 0                                            
__________________________________________________________________________________________________
conv2d_1 (Conv2D)               (None, 1600, 200, 32 288         the_input[0][0]                  
__________________________________________________________________________________________________
batch_normalization_1 (BatchNor (None, 1600, 200, 32 6400        conv2d_1[0][0]                   
__________________________________________________________________________________________________
conv2d_2 (Conv2D)               (None, 1600, 200, 32 9248        batch_normalization_1[0][0]      
__________________________________________________________________________________________________
max_pooling2d_1 (MaxPooling2D)  (None, 800, 100, 32) 0           conv2d_2[0][0]                   
__________________________________________________________________________________________________
batch_normalization_2 (BatchNor (None, 800, 100, 32) 3200        max_pooling2d_1[0][0]            
__________________________________________________________________________________________________
conv2d_3 (Conv2D)               (None, 800, 100, 64) 18496       batch_normalization_2[0][0]      
__________________________________________________________________________________________________
batch_normalization_3 (BatchNor (None, 800, 100, 64) 3200        conv2d_3[0][0]                   
__________________________________________________________________________________________________
conv2d_4 (Conv2D)               (None, 800, 100, 64) 36928       batch_normalization_3[0][0]      
__________________________________________________________________________________________________
max_pooling2d_2 (MaxPooling2D)  (None, 400, 50, 64)  0           conv2d_4[0][0]                   
__________________________________________________________________________________________________
batch_normalization_4 (BatchNor (None, 400, 50, 64)  1600        max_pooling2d_2[0][0]            
__________________________________________________________________________________________________
conv2d_5 (Conv2D)               (None, 400, 50, 128) 73856       batch_normalization_4[0][0]      
__________________________________________________________________________________________________
batch_normalization_5 (BatchNor (None, 400, 50, 128) 1600        conv2d_5[0][0]                   
__________________________________________________________________________________________________
conv2d_6 (Conv2D)               (None, 400, 50, 128) 147584      batch_normalization_5[0][0]      
__________________________________________________________________________________________________
batch_normalization_6 (BatchNor (None, 400, 50, 128) 1600        conv2d_6[0][0]                   
__________________________________________________________________________________________________
max_pooling2d_3 (MaxPooling2D)  (None, 200, 25, 128) 0           batch_normalization_6[0][0]      
__________________________________________________________________________________________________
conv2d_7 (Conv2D)               (None, 200, 25, 128) 147584      max_pooling2d_3[0][0]            
__________________________________________________________________________________________________